…

[INFO] Processing the subdirectory named: 9 	[ 10 / 10 ]

[INFO] Extracted BRISK

[INFO] Time: 00:01:21 

__________________________________________________________________________________________________

[INFO] Building Model:

[INFO] Time: 00:17:29

Model: "ResNet"
__________________________________________________________________________________________________
Layer (type)                    Output Shape         Param #     Connected to                     
==================================================================================================
input_1 (InputLayer)            [(None, 128, 128, 1) 0                                            
__________________________________________________________________________________________________
zero_padding2d (ZeroPadding2D)  (None, 134, 134, 1)  0           input_1[0][0]                    
__________________________________________________________________________________________________
conv1 (Conv2D)                  (None, 64, 64, 64)   3200        zero_padding2d[0][0]             
__________________________________________________________________________________________________
bn_conv1 (BatchNormalization)   (None, 64, 64, 64)   256         conv1[0][0]                      
__________________________________________________________________________________________________
activation (Activation)         (None, 64, 64, 64)   0           bn_conv1[0][0]                   
__________________________________________________________________________________________________
max_pooling2d (MaxPooling2D)    (None, 31, 31, 64)   0           activation[0][0]                 
__________________________________________________________________________________________________
desc_conv2d (DescConv2D)        (None, 31, 31, 64)   4160        max_pooling2d[0][0]              
__________________________________________________________________________________________________
bn2a_branch2a (BatchNormalizati (None, 31, 31, 64)   256         desc_conv2d[0][0]                
__________________________________________________________________________________________________
activation_1 (Activation)       (None, 31, 31, 64)   0           bn2a_branch2a[0][0]              
__________________________________________________________________________________________________
desc_conv2d_1 (DescConv2D)      (None, 31, 31, 64)   36928       activation_1[0][0]               
__________________________________________________________________________________________________
bn2a_branch2b (BatchNormalizati (None, 31, 31, 64)   256         desc_conv2d_1[0][0]              
__________________________________________________________________________________________________
activation_2 (Activation)       (None, 31, 31, 64)   0           bn2a_branch2b[0][0]              
__________________________________________________________________________________________________
desc_conv2d_2 (DescConv2D)      (None, 31, 31, 256)  16640       activation_2[0][0]               
__________________________________________________________________________________________________
desc_conv2d_3 (DescConv2D)      (None, 31, 31, 256)  16640       max_pooling2d[0][0]              
__________________________________________________________________________________________________
bn2a_branch2c (BatchNormalizati (None, 31, 31, 256)  1024        desc_conv2d_2[0][0]              
__________________________________________________________________________________________________
bn2a_branch1 (BatchNormalizatio (None, 31, 31, 256)  1024        desc_conv2d_3[0][0]              
__________________________________________________________________________________________________
add (Add)                       (None, 31, 31, 256)  0           bn2a_branch2c[0][0]              
                                                                 bn2a_branch1[0][0]               
__________________________________________________________________________________________________
activation_3 (Activation)       (None, 31, 31, 256)  0           add[0][0]                        
__________________________________________________________________________________________________
res21_branch2a (Conv2D)         (None, 31, 31, 64)   16448       activation_3[0][0]               
__________________________________________________________________________________________________
bn21_branch2a (BatchNormalizati (None, 31, 31, 64)   256         res21_branch2a[0][0]             
__________________________________________________________________________________________________
activation_4 (Activation)       (None, 31, 31, 64)   0           bn21_branch2a[0][0]              
__________________________________________________________________________________________________
res21_branch2b (Conv2D)         (None, 31, 31, 64)   36928       activation_4[0][0]               
__________________________________________________________________________________________________
bn21_branch2b (BatchNormalizati (None, 31, 31, 64)   256         res21_branch2b[0][0]             
__________________________________________________________________________________________________
activation_5 (Activation)       (None, 31, 31, 64)   0           bn21_branch2b[0][0]              
__________________________________________________________________________________________________
res21_branch2c (Conv2D)         (None, 31, 31, 256)  16640       activation_5[0][0]               
__________________________________________________________________________________________________
bn21_branch2c (BatchNormalizati (None, 31, 31, 256)  1024        res21_branch2c[0][0]             
__________________________________________________________________________________________________
add_1 (Add)                     (None, 31, 31, 256)  0           activation_3[0][0]               
                                                                 bn21_branch2c[0][0]              
__________________________________________________________________________________________________
activation_6 (Activation)       (None, 31, 31, 256)  0           add_1[0][0]                      
__________________________________________________________________________________________________
res22_branch2a (Conv2D)         (None, 31, 31, 64)   16448       activation_6[0][0]               
__________________________________________________________________________________________________
bn22_branch2a (BatchNormalizati (None, 31, 31, 64)   256         res22_branch2a[0][0]             
__________________________________________________________________________________________________
activation_7 (Activation)       (None, 31, 31, 64)   0           bn22_branch2a[0][0]              
__________________________________________________________________________________________________
res22_branch2b (Conv2D)         (None, 31, 31, 64)   36928       activation_7[0][0]               
__________________________________________________________________________________________________
bn22_branch2b (BatchNormalizati (None, 31, 31, 64)   256         res22_branch2b[0][0]             
__________________________________________________________________________________________________
activation_8 (Activation)       (None, 31, 31, 64)   0           bn22_branch2b[0][0]              
__________________________________________________________________________________________________
res22_branch2c (Conv2D)         (None, 31, 31, 256)  16640       activation_8[0][0]               
__________________________________________________________________________________________________
bn22_branch2c (BatchNormalizati (None, 31, 31, 256)  1024        res22_branch2c[0][0]             
__________________________________________________________________________________________________
add_2 (Add)                     (None, 31, 31, 256)  0           activation_6[0][0]               
                                                                 bn22_branch2c[0][0]              
__________________________________________________________________________________________________
activation_9 (Activation)       (None, 31, 31, 256)  0           add_2[0][0]                      
__________________________________________________________________________________________________
desc_conv2d_4 (DescConv2D)      (None, 16, 16, 128)  32896       activation_9[0][0]               
__________________________________________________________________________________________________
bn3a_branch2a (BatchNormalizati (None, 16, 16, 128)  512         desc_conv2d_4[0][0]              
__________________________________________________________________________________________________
activation_10 (Activation)      (None, 16, 16, 128)  0           bn3a_branch2a[0][0]              
__________________________________________________________________________________________________
desc_conv2d_5 (DescConv2D)      (None, 16, 16, 128)  147584      activation_10[0][0]              
__________________________________________________________________________________________________
bn3a_branch2b (BatchNormalizati (None, 16, 16, 128)  512         desc_conv2d_5[0][0]              
__________________________________________________________________________________________________
activation_11 (Activation)      (None, 16, 16, 128)  0           bn3a_branch2b[0][0]              
__________________________________________________________________________________________________
desc_conv2d_6 (DescConv2D)      (None, 16, 16, 512)  66048       activation_11[0][0]              
__________________________________________________________________________________________________
desc_conv2d_7 (DescConv2D)      (None, 16, 16, 512)  131584      activation_9[0][0]               
__________________________________________________________________________________________________
bn3a_branch2c (BatchNormalizati (None, 16, 16, 512)  2048        desc_conv2d_6[0][0]              
__________________________________________________________________________________________________
bn3a_branch1 (BatchNormalizatio (None, 16, 16, 512)  2048        desc_conv2d_7[0][0]              
__________________________________________________________________________________________________
add_3 (Add)                     (None, 16, 16, 512)  0           bn3a_branch2c[0][0]              
                                                                 bn3a_branch1[0][0]               
__________________________________________________________________________________________________
activation_12 (Activation)      (None, 16, 16, 512)  0           add_3[0][0]                      
__________________________________________________________________________________________________
res31_branch2a (Conv2D)         (None, 16, 16, 128)  65664       activation_12[0][0]              
__________________________________________________________________________________________________
bn31_branch2a (BatchNormalizati (None, 16, 16, 128)  512         res31_branch2a[0][0]             
__________________________________________________________________________________________________
activation_13 (Activation)      (None, 16, 16, 128)  0           bn31_branch2a[0][0]              
__________________________________________________________________________________________________
res31_branch2b (Conv2D)         (None, 16, 16, 128)  147584      activation_13[0][0]              
__________________________________________________________________________________________________
bn31_branch2b (BatchNormalizati (None, 16, 16, 128)  512         res31_branch2b[0][0]             
__________________________________________________________________________________________________
activation_14 (Activation)      (None, 16, 16, 128)  0           bn31_branch2b[0][0]              
__________________________________________________________________________________________________
res31_branch2c (Conv2D)         (None, 16, 16, 512)  66048       activation_14[0][0]              
__________________________________________________________________________________________________
bn31_branch2c (BatchNormalizati (None, 16, 16, 512)  2048        res31_branch2c[0][0]             
__________________________________________________________________________________________________
add_4 (Add)                     (None, 16, 16, 512)  0           activation_12[0][0]              
                                                                 bn31_branch2c[0][0]              
__________________________________________________________________________________________________
activation_15 (Activation)      (None, 16, 16, 512)  0           add_4[0][0]                      
__________________________________________________________________________________________________
res32_branch2a (Conv2D)         (None, 16, 16, 128)  65664       activation_15[0][0]              
__________________________________________________________________________________________________
bn32_branch2a (BatchNormalizati (None, 16, 16, 128)  512         res32_branch2a[0][0]             
__________________________________________________________________________________________________
activation_16 (Activation)      (None, 16, 16, 128)  0           bn32_branch2a[0][0]              
__________________________________________________________________________________________________
res32_branch2b (Conv2D)         (None, 16, 16, 128)  147584      activation_16[0][0]              
__________________________________________________________________________________________________
bn32_branch2b (BatchNormalizati (None, 16, 16, 128)  512         res32_branch2b[0][0]             
__________________________________________________________________________________________________
activation_17 (Activation)      (None, 16, 16, 128)  0           bn32_branch2b[0][0]              
__________________________________________________________________________________________________
res32_branch2c (Conv2D)         (None, 16, 16, 512)  66048       activation_17[0][0]              
__________________________________________________________________________________________________
bn32_branch2c (BatchNormalizati (None, 16, 16, 512)  2048        res32_branch2c[0][0]             
__________________________________________________________________________________________________
add_5 (Add)                     (None, 16, 16, 512)  0           activation_15[0][0]              
                                                                 bn32_branch2c[0][0]              
__________________________________________________________________________________________________
activation_18 (Activation)      (None, 16, 16, 512)  0           add_5[0][0]                      
__________________________________________________________________________________________________
res33_branch2a (Conv2D)         (None, 16, 16, 128)  65664       activation_18[0][0]              
__________________________________________________________________________________________________
bn33_branch2a (BatchNormalizati (None, 16, 16, 128)  512         res33_branch2a[0][0]             
__________________________________________________________________________________________________
activation_19 (Activation)      (None, 16, 16, 128)  0           bn33_branch2a[0][0]              
__________________________________________________________________________________________________
res33_branch2b (Conv2D)         (None, 16, 16, 128)  147584      activation_19[0][0]              
__________________________________________________________________________________________________
bn33_branch2b (BatchNormalizati (None, 16, 16, 128)  512         res33_branch2b[0][0]             
__________________________________________________________________________________________________
activation_20 (Activation)      (None, 16, 16, 128)  0           bn33_branch2b[0][0]              
__________________________________________________________________________________________________
res33_branch2c (Conv2D)         (None, 16, 16, 512)  66048       activation_20[0][0]              
__________________________________________________________________________________________________
bn33_branch2c (BatchNormalizati (None, 16, 16, 512)  2048        res33_branch2c[0][0]             
__________________________________________________________________________________________________
add_6 (Add)                     (None, 16, 16, 512)  0           activation_18[0][0]              
                                                                 bn33_branch2c[0][0]              
__________________________________________________________________________________________________
activation_21 (Activation)      (None, 16, 16, 512)  0           add_6[0][0]                      
__________________________________________________________________________________________________
res34_branch2a (Conv2D)         (None, 16, 16, 128)  65664       activation_21[0][0]              
__________________________________________________________________________________________________
bn34_branch2a (BatchNormalizati (None, 16, 16, 128)  512         res34_branch2a[0][0]             
__________________________________________________________________________________________________
activation_22 (Activation)      (None, 16, 16, 128)  0           bn34_branch2a[0][0]              
__________________________________________________________________________________________________
res34_branch2b (Conv2D)         (None, 16, 16, 128)  147584      activation_22[0][0]              
__________________________________________________________________________________________________
bn34_branch2b (BatchNormalizati (None, 16, 16, 128)  512         res34_branch2b[0][0]             
__________________________________________________________________________________________________
activation_23 (Activation)      (None, 16, 16, 128)  0           bn34_branch2b[0][0]              
__________________________________________________________________________________________________
res34_branch2c (Conv2D)         (None, 16, 16, 512)  66048       activation_23[0][0]              
__________________________________________________________________________________________________
bn34_branch2c (BatchNormalizati (None, 16, 16, 512)  2048        res34_branch2c[0][0]             
__________________________________________________________________________________________________
add_7 (Add)                     (None, 16, 16, 512)  0           activation_21[0][0]              
                                                                 bn34_branch2c[0][0]              
__________________________________________________________________________________________________
activation_24 (Activation)      (None, 16, 16, 512)  0           add_7[0][0]                      
__________________________________________________________________________________________________
res35_branch2a (Conv2D)         (None, 16, 16, 128)  65664       activation_24[0][0]              
__________________________________________________________________________________________________
bn35_branch2a (BatchNormalizati (None, 16, 16, 128)  512         res35_branch2a[0][0]             
__________________________________________________________________________________________________
activation_25 (Activation)      (None, 16, 16, 128)  0           bn35_branch2a[0][0]              
__________________________________________________________________________________________________
res35_branch2b (Conv2D)         (None, 16, 16, 128)  147584      activation_25[0][0]              
__________________________________________________________________________________________________
bn35_branch2b (BatchNormalizati (None, 16, 16, 128)  512         res35_branch2b[0][0]             
__________________________________________________________________________________________________
activation_26 (Activation)      (None, 16, 16, 128)  0           bn35_branch2b[0][0]              
__________________________________________________________________________________________________
res35_branch2c (Conv2D)         (None, 16, 16, 512)  66048       activation_26[0][0]              
__________________________________________________________________________________________________
bn35_branch2c (BatchNormalizati (None, 16, 16, 512)  2048        res35_branch2c[0][0]             
__________________________________________________________________________________________________
add_8 (Add)                     (None, 16, 16, 512)  0           activation_24[0][0]              
                                                                 bn35_branch2c[0][0]              
__________________________________________________________________________________________________
activation_27 (Activation)      (None, 16, 16, 512)  0           add_8[0][0]                      
__________________________________________________________________________________________________
res36_branch2a (Conv2D)         (None, 16, 16, 128)  65664       activation_27[0][0]              
__________________________________________________________________________________________________
bn36_branch2a (BatchNormalizati (None, 16, 16, 128)  512         res36_branch2a[0][0]             
__________________________________________________________________________________________________
activation_28 (Activation)      (None, 16, 16, 128)  0           bn36_branch2a[0][0]              
__________________________________________________________________________________________________
res36_branch2b (Conv2D)         (None, 16, 16, 128)  147584      activation_28[0][0]              
__________________________________________________________________________________________________
bn36_branch2b (BatchNormalizati (None, 16, 16, 128)  512         res36_branch2b[0][0]             
__________________________________________________________________________________________________
activation_29 (Activation)      (None, 16, 16, 128)  0           bn36_branch2b[0][0]              
__________________________________________________________________________________________________
res36_branch2c (Conv2D)         (None, 16, 16, 512)  66048       activation_29[0][0]              
__________________________________________________________________________________________________
bn36_branch2c (BatchNormalizati (None, 16, 16, 512)  2048        res36_branch2c[0][0]             
__________________________________________________________________________________________________
add_9 (Add)                     (None, 16, 16, 512)  0           activation_27[0][0]              
                                                                 bn36_branch2c[0][0]              
__________________________________________________________________________________________________
activation_30 (Activation)      (None, 16, 16, 512)  0           add_9[0][0]                      
__________________________________________________________________________________________________
res37_branch2a (Conv2D)         (None, 16, 16, 128)  65664       activation_30[0][0]              
__________________________________________________________________________________________________
bn37_branch2a (BatchNormalizati (None, 16, 16, 128)  512         res37_branch2a[0][0]             
__________________________________________________________________________________________________
activation_31 (Activation)      (None, 16, 16, 128)  0           bn37_branch2a[0][0]              
__________________________________________________________________________________________________
res37_branch2b (Conv2D)         (None, 16, 16, 128)  147584      activation_31[0][0]              
__________________________________________________________________________________________________
bn37_branch2b (BatchNormalizati (None, 16, 16, 128)  512         res37_branch2b[0][0]             
__________________________________________________________________________________________________
activation_32 (Activation)      (None, 16, 16, 128)  0           bn37_branch2b[0][0]              
__________________________________________________________________________________________________
res37_branch2c (Conv2D)         (None, 16, 16, 512)  66048       activation_32[0][0]              
__________________________________________________________________________________________________
bn37_branch2c (BatchNormalizati (None, 16, 16, 512)  2048        res37_branch2c[0][0]             
__________________________________________________________________________________________________
add_10 (Add)                    (None, 16, 16, 512)  0           activation_30[0][0]              
                                                                 bn37_branch2c[0][0]              
__________________________________________________________________________________________________
activation_33 (Activation)      (None, 16, 16, 512)  0           add_10[0][0]                     
__________________________________________________________________________________________________
desc_conv2d_8 (DescConv2D)      (None, 8, 8, 256)    131328      activation_33[0][0]              
__________________________________________________________________________________________________
bn4a_branch2a (BatchNormalizati (None, 8, 8, 256)    1024        desc_conv2d_8[0][0]              
__________________________________________________________________________________________________
activation_34 (Activation)      (None, 8, 8, 256)    0           bn4a_branch2a[0][0]              
__________________________________________________________________________________________________
desc_conv2d_9 (DescConv2D)      (None, 8, 8, 256)    590080      activation_34[0][0]              
__________________________________________________________________________________________________
bn4a_branch2b (BatchNormalizati (None, 8, 8, 256)    1024        desc_conv2d_9[0][0]              
__________________________________________________________________________________________________
activation_35 (Activation)      (None, 8, 8, 256)    0           bn4a_branch2b[0][0]              
__________________________________________________________________________________________________
desc_conv2d_10 (DescConv2D)     (None, 8, 8, 1024)   263168      activation_35[0][0]              
__________________________________________________________________________________________________
desc_conv2d_11 (DescConv2D)     (None, 8, 8, 1024)   525312      activation_33[0][0]              
__________________________________________________________________________________________________
bn4a_branch2c (BatchNormalizati (None, 8, 8, 1024)   4096        desc_conv2d_10[0][0]             
__________________________________________________________________________________________________
bn4a_branch1 (BatchNormalizatio (None, 8, 8, 1024)   4096        desc_conv2d_11[0][0]             
__________________________________________________________________________________________________
add_11 (Add)                    (None, 8, 8, 1024)   0           bn4a_branch2c[0][0]              
                                                                 bn4a_branch1[0][0]               
__________________________________________________________________________________________________
activation_36 (Activation)      (None, 8, 8, 1024)   0           add_11[0][0]                     
__________________________________________________________________________________________________
res41_branch2a (Conv2D)         (None, 8, 8, 256)    262400      activation_36[0][0]              
__________________________________________________________________________________________________
bn41_branch2a (BatchNormalizati (None, 8, 8, 256)    1024        res41_branch2a[0][0]             
__________________________________________________________________________________________________
activation_37 (Activation)      (None, 8, 8, 256)    0           bn41_branch2a[0][0]              
__________________________________________________________________________________________________
res41_branch2b (Conv2D)         (None, 8, 8, 256)    590080      activation_37[0][0]              
__________________________________________________________________________________________________
bn41_branch2b (BatchNormalizati (None, 8, 8, 256)    1024        res41_branch2b[0][0]             
__________________________________________________________________________________________________
activation_38 (Activation)      (None, 8, 8, 256)    0           bn41_branch2b[0][0]              
__________________________________________________________________________________________________
res41_branch2c (Conv2D)         (None, 8, 8, 1024)   263168      activation_38[0][0]              
__________________________________________________________________________________________________
bn41_branch2c (BatchNormalizati (None, 8, 8, 1024)   4096        res41_branch2c[0][0]             
__________________________________________________________________________________________________
add_12 (Add)                    (None, 8, 8, 1024)   0           activation_36[0][0]              
                                                                 bn41_branch2c[0][0]              
__________________________________________________________________________________________________
activation_39 (Activation)      (None, 8, 8, 1024)   0           add_12[0][0]                     
__________________________________________________________________________________________________
res42_branch2a (Conv2D)         (None, 8, 8, 256)    262400      activation_39[0][0]              
__________________________________________________________________________________________________
bn42_branch2a (BatchNormalizati (None, 8, 8, 256)    1024        res42_branch2a[0][0]             
__________________________________________________________________________________________________
activation_40 (Activation)      (None, 8, 8, 256)    0           bn42_branch2a[0][0]              
__________________________________________________________________________________________________
res42_branch2b (Conv2D)         (None, 8, 8, 256)    590080      activation_40[0][0]              
__________________________________________________________________________________________________
bn42_branch2b (BatchNormalizati (None, 8, 8, 256)    1024        res42_branch2b[0][0]             
__________________________________________________________________________________________________
activation_41 (Activation)      (None, 8, 8, 256)    0           bn42_branch2b[0][0]              
__________________________________________________________________________________________________
res42_branch2c (Conv2D)         (None, 8, 8, 1024)   263168      activation_41[0][0]              
__________________________________________________________________________________________________
bn42_branch2c (BatchNormalizati (None, 8, 8, 1024)   4096        res42_branch2c[0][0]             
__________________________________________________________________________________________________
add_13 (Add)                    (None, 8, 8, 1024)   0           activation_39[0][0]              
                                                                 bn42_branch2c[0][0]              
__________________________________________________________________________________________________
activation_42 (Activation)      (None, 8, 8, 1024)   0           add_13[0][0]                     
__________________________________________________________________________________________________
res43_branch2a (Conv2D)         (None, 8, 8, 256)    262400      activation_42[0][0]              
__________________________________________________________________________________________________
bn43_branch2a (BatchNormalizati (None, 8, 8, 256)    1024        res43_branch2a[0][0]             
__________________________________________________________________________________________________
activation_43 (Activation)      (None, 8, 8, 256)    0           bn43_branch2a[0][0]              
__________________________________________________________________________________________________
res43_branch2b (Conv2D)         (None, 8, 8, 256)    590080      activation_43[0][0]              
__________________________________________________________________________________________________
bn43_branch2b (BatchNormalizati (None, 8, 8, 256)    1024        res43_branch2b[0][0]             
__________________________________________________________________________________________________
activation_44 (Activation)      (None, 8, 8, 256)    0           bn43_branch2b[0][0]              
__________________________________________________________________________________________________
res43_branch2c (Conv2D)         (None, 8, 8, 1024)   263168      activation_44[0][0]              
__________________________________________________________________________________________________
bn43_branch2c (BatchNormalizati (None, 8, 8, 1024)   4096        res43_branch2c[0][0]             
__________________________________________________________________________________________________
add_14 (Add)                    (None, 8, 8, 1024)   0           activation_42[0][0]              
                                                                 bn43_branch2c[0][0]              
__________________________________________________________________________________________________
activation_45 (Activation)      (None, 8, 8, 1024)   0           add_14[0][0]                     
__________________________________________________________________________________________________
res44_branch2a (Conv2D)         (None, 8, 8, 256)    262400      activation_45[0][0]              
__________________________________________________________________________________________________
bn44_branch2a (BatchNormalizati (None, 8, 8, 256)    1024        res44_branch2a[0][0]             
__________________________________________________________________________________________________
activation_46 (Activation)      (None, 8, 8, 256)    0           bn44_branch2a[0][0]              
__________________________________________________________________________________________________
res44_branch2b (Conv2D)         (None, 8, 8, 256)    590080      activation_46[0][0]              
__________________________________________________________________________________________________
bn44_branch2b (BatchNormalizati (None, 8, 8, 256)    1024        res44_branch2b[0][0]             
__________________________________________________________________________________________________
activation_47 (Activation)      (None, 8, 8, 256)    0           bn44_branch2b[0][0]              
__________________________________________________________________________________________________
res44_branch2c (Conv2D)         (None, 8, 8, 1024)   263168      activation_47[0][0]              
__________________________________________________________________________________________________
bn44_branch2c (BatchNormalizati (None, 8, 8, 1024)   4096        res44_branch2c[0][0]             
__________________________________________________________________________________________________
add_15 (Add)                    (None, 8, 8, 1024)   0           activation_45[0][0]              
                                                                 bn44_branch2c[0][0]              
__________________________________________________________________________________________________
activation_48 (Activation)      (None, 8, 8, 1024)   0           add_15[0][0]                     
__________________________________________________________________________________________________
res45_branch2a (Conv2D)         (None, 8, 8, 256)    262400      activation_48[0][0]              
__________________________________________________________________________________________________
bn45_branch2a (BatchNormalizati (None, 8, 8, 256)    1024        res45_branch2a[0][0]             
__________________________________________________________________________________________________
activation_49 (Activation)      (None, 8, 8, 256)    0           bn45_branch2a[0][0]              
__________________________________________________________________________________________________
res45_branch2b (Conv2D)         (None, 8, 8, 256)    590080      activation_49[0][0]              
__________________________________________________________________________________________________
bn45_branch2b (BatchNormalizati (None, 8, 8, 256)    1024        res45_branch2b[0][0]             
__________________________________________________________________________________________________
activation_50 (Activation)      (None, 8, 8, 256)    0           bn45_branch2b[0][0]              
__________________________________________________________________________________________________
res45_branch2c (Conv2D)         (None, 8, 8, 1024)   263168      activation_50[0][0]              
__________________________________________________________________________________________________
bn45_branch2c (BatchNormalizati (None, 8, 8, 1024)   4096        res45_branch2c[0][0]             
__________________________________________________________________________________________________
add_16 (Add)                    (None, 8, 8, 1024)   0           activation_48[0][0]              
                                                                 bn45_branch2c[0][0]              
__________________________________________________________________________________________________
activation_51 (Activation)      (None, 8, 8, 1024)   0           add_16[0][0]                     
__________________________________________________________________________________________________
res46_branch2a (Conv2D)         (None, 8, 8, 256)    262400      activation_51[0][0]              
__________________________________________________________________________________________________
bn46_branch2a (BatchNormalizati (None, 8, 8, 256)    1024        res46_branch2a[0][0]             
__________________________________________________________________________________________________
activation_52 (Activation)      (None, 8, 8, 256)    0           bn46_branch2a[0][0]              
__________________________________________________________________________________________________
res46_branch2b (Conv2D)         (None, 8, 8, 256)    590080      activation_52[0][0]              
__________________________________________________________________________________________________
bn46_branch2b (BatchNormalizati (None, 8, 8, 256)    1024        res46_branch2b[0][0]             
__________________________________________________________________________________________________
activation_53 (Activation)      (None, 8, 8, 256)    0           bn46_branch2b[0][0]              
__________________________________________________________________________________________________
res46_branch2c (Conv2D)         (None, 8, 8, 1024)   263168      activation_53[0][0]              
__________________________________________________________________________________________________
bn46_branch2c (BatchNormalizati (None, 8, 8, 1024)   4096        res46_branch2c[0][0]             
__________________________________________________________________________________________________
add_17 (Add)                    (None, 8, 8, 1024)   0           activation_51[0][0]              
                                                                 bn46_branch2c[0][0]              
__________________________________________________________________________________________________
activation_54 (Activation)      (None, 8, 8, 1024)   0           add_17[0][0]                     
__________________________________________________________________________________________________
res47_branch2a (Conv2D)         (None, 8, 8, 256)    262400      activation_54[0][0]              
__________________________________________________________________________________________________
bn47_branch2a (BatchNormalizati (None, 8, 8, 256)    1024        res47_branch2a[0][0]             
__________________________________________________________________________________________________
activation_55 (Activation)      (None, 8, 8, 256)    0           bn47_branch2a[0][0]              
__________________________________________________________________________________________________
res47_branch2b (Conv2D)         (None, 8, 8, 256)    590080      activation_55[0][0]              
__________________________________________________________________________________________________
bn47_branch2b (BatchNormalizati (None, 8, 8, 256)    1024        res47_branch2b[0][0]             
__________________________________________________________________________________________________
activation_56 (Activation)      (None, 8, 8, 256)    0           bn47_branch2b[0][0]              
__________________________________________________________________________________________________
res47_branch2c (Conv2D)         (None, 8, 8, 1024)   263168      activation_56[0][0]              
__________________________________________________________________________________________________
bn47_branch2c (BatchNormalizati (None, 8, 8, 1024)   4096        res47_branch2c[0][0]             
__________________________________________________________________________________________________
add_18 (Add)                    (None, 8, 8, 1024)   0           activation_54[0][0]              
                                                                 bn47_branch2c[0][0]              
__________________________________________________________________________________________________
activation_57 (Activation)      (None, 8, 8, 1024)   0           add_18[0][0]                     
__________________________________________________________________________________________________
res48_branch2a (Conv2D)         (None, 8, 8, 256)    262400      activation_57[0][0]              
__________________________________________________________________________________________________
bn48_branch2a (BatchNormalizati (None, 8, 8, 256)    1024        res48_branch2a[0][0]             
__________________________________________________________________________________________________
activation_58 (Activation)      (None, 8, 8, 256)    0           bn48_branch2a[0][0]              
__________________________________________________________________________________________________
res48_branch2b (Conv2D)         (None, 8, 8, 256)    590080      activation_58[0][0]              
__________________________________________________________________________________________________
bn48_branch2b (BatchNormalizati (None, 8, 8, 256)    1024        res48_branch2b[0][0]             
__________________________________________________________________________________________________
activation_59 (Activation)      (None, 8, 8, 256)    0           bn48_branch2b[0][0]              
__________________________________________________________________________________________________
res48_branch2c (Conv2D)         (None, 8, 8, 1024)   263168      activation_59[0][0]              
__________________________________________________________________________________________________
bn48_branch2c (BatchNormalizati (None, 8, 8, 1024)   4096        res48_branch2c[0][0]             
__________________________________________________________________________________________________
add_19 (Add)                    (None, 8, 8, 1024)   0           activation_57[0][0]              
                                                                 bn48_branch2c[0][0]              
__________________________________________________________________________________________________
activation_60 (Activation)      (None, 8, 8, 1024)   0           add_19[0][0]                     
__________________________________________________________________________________________________
res49_branch2a (Conv2D)         (None, 8, 8, 256)    262400      activation_60[0][0]              
__________________________________________________________________________________________________
bn49_branch2a (BatchNormalizati (None, 8, 8, 256)    1024        res49_branch2a[0][0]             
__________________________________________________________________________________________________
activation_61 (Activation)      (None, 8, 8, 256)    0           bn49_branch2a[0][0]              
__________________________________________________________________________________________________
res49_branch2b (Conv2D)         (None, 8, 8, 256)    590080      activation_61[0][0]              
__________________________________________________________________________________________________
bn49_branch2b (BatchNormalizati (None, 8, 8, 256)    1024        res49_branch2b[0][0]             
__________________________________________________________________________________________________
activation_62 (Activation)      (None, 8, 8, 256)    0           bn49_branch2b[0][0]              
__________________________________________________________________________________________________
res49_branch2c (Conv2D)         (None, 8, 8, 1024)   263168      activation_62[0][0]              
__________________________________________________________________________________________________
bn49_branch2c (BatchNormalizati (None, 8, 8, 1024)   4096        res49_branch2c[0][0]             
__________________________________________________________________________________________________
add_20 (Add)                    (None, 8, 8, 1024)   0           activation_60[0][0]              
                                                                 bn49_branch2c[0][0]              
__________________________________________________________________________________________________
activation_63 (Activation)      (None, 8, 8, 1024)   0           add_20[0][0]                     
__________________________________________________________________________________________________
res410_branch2a (Conv2D)        (None, 8, 8, 256)    262400      activation_63[0][0]              
__________________________________________________________________________________________________
bn410_branch2a (BatchNormalizat (None, 8, 8, 256)    1024        res410_branch2a[0][0]            
__________________________________________________________________________________________________
activation_64 (Activation)      (None, 8, 8, 256)    0           bn410_branch2a[0][0]             
__________________________________________________________________________________________________
res410_branch2b (Conv2D)        (None, 8, 8, 256)    590080      activation_64[0][0]              
__________________________________________________________________________________________________
bn410_branch2b (BatchNormalizat (None, 8, 8, 256)    1024        res410_branch2b[0][0]            
__________________________________________________________________________________________________
activation_65 (Activation)      (None, 8, 8, 256)    0           bn410_branch2b[0][0]             
__________________________________________________________________________________________________
res410_branch2c (Conv2D)        (None, 8, 8, 1024)   263168      activation_65[0][0]              
__________________________________________________________________________________________________
bn410_branch2c (BatchNormalizat (None, 8, 8, 1024)   4096        res410_branch2c[0][0]            
__________________________________________________________________________________________________
add_21 (Add)                    (None, 8, 8, 1024)   0           activation_63[0][0]              
                                                                 bn410_branch2c[0][0]             
__________________________________________________________________________________________________
activation_66 (Activation)      (None, 8, 8, 1024)   0           add_21[0][0]                     
__________________________________________________________________________________________________
res411_branch2a (Conv2D)        (None, 8, 8, 256)    262400      activation_66[0][0]              
__________________________________________________________________________________________________
bn411_branch2a (BatchNormalizat (None, 8, 8, 256)    1024        res411_branch2a[0][0]            
__________________________________________________________________________________________________
activation_67 (Activation)      (None, 8, 8, 256)    0           bn411_branch2a[0][0]             
__________________________________________________________________________________________________
res411_branch2b (Conv2D)        (None, 8, 8, 256)    590080      activation_67[0][0]              
__________________________________________________________________________________________________
bn411_branch2b (BatchNormalizat (None, 8, 8, 256)    1024        res411_branch2b[0][0]            
__________________________________________________________________________________________________
activation_68 (Activation)      (None, 8, 8, 256)    0           bn411_branch2b[0][0]             
__________________________________________________________________________________________________
res411_branch2c (Conv2D)        (None, 8, 8, 1024)   263168      activation_68[0][0]              
__________________________________________________________________________________________________
bn411_branch2c (BatchNormalizat (None, 8, 8, 1024)   4096        res411_branch2c[0][0]            
__________________________________________________________________________________________________
add_22 (Add)                    (None, 8, 8, 1024)   0           activation_66[0][0]              
                                                                 bn411_branch2c[0][0]             
__________________________________________________________________________________________________
activation_69 (Activation)      (None, 8, 8, 1024)   0           add_22[0][0]                     
__________________________________________________________________________________________________
res412_branch2a (Conv2D)        (None, 8, 8, 256)    262400      activation_69[0][0]              
__________________________________________________________________________________________________
bn412_branch2a (BatchNormalizat (None, 8, 8, 256)    1024        res412_branch2a[0][0]            
__________________________________________________________________________________________________
activation_70 (Activation)      (None, 8, 8, 256)    0           bn412_branch2a[0][0]             
__________________________________________________________________________________________________
res412_branch2b (Conv2D)        (None, 8, 8, 256)    590080      activation_70[0][0]              
__________________________________________________________________________________________________
bn412_branch2b (BatchNormalizat (None, 8, 8, 256)    1024        res412_branch2b[0][0]            
__________________________________________________________________________________________________
activation_71 (Activation)      (None, 8, 8, 256)    0           bn412_branch2b[0][0]             
__________________________________________________________________________________________________
res412_branch2c (Conv2D)        (None, 8, 8, 1024)   263168      activation_71[0][0]              
__________________________________________________________________________________________________
bn412_branch2c (BatchNormalizat (None, 8, 8, 1024)   4096        res412_branch2c[0][0]            
__________________________________________________________________________________________________
add_23 (Add)                    (None, 8, 8, 1024)   0           activation_69[0][0]              
                                                                 bn412_branch2c[0][0]             
__________________________________________________________________________________________________
activation_72 (Activation)      (None, 8, 8, 1024)   0           add_23[0][0]                     
__________________________________________________________________________________________________
res413_branch2a (Conv2D)        (None, 8, 8, 256)    262400      activation_72[0][0]              
__________________________________________________________________________________________________
bn413_branch2a (BatchNormalizat (None, 8, 8, 256)    1024        res413_branch2a[0][0]            
__________________________________________________________________________________________________
activation_73 (Activation)      (None, 8, 8, 256)    0           bn413_branch2a[0][0]             
__________________________________________________________________________________________________
res413_branch2b (Conv2D)        (None, 8, 8, 256)    590080      activation_73[0][0]              
__________________________________________________________________________________________________
bn413_branch2b (BatchNormalizat (None, 8, 8, 256)    1024        res413_branch2b[0][0]            
__________________________________________________________________________________________________
activation_74 (Activation)      (None, 8, 8, 256)    0           bn413_branch2b[0][0]             
__________________________________________________________________________________________________
res413_branch2c (Conv2D)        (None, 8, 8, 1024)   263168      activation_74[0][0]              
__________________________________________________________________________________________________
bn413_branch2c (BatchNormalizat (None, 8, 8, 1024)   4096        res413_branch2c[0][0]            
__________________________________________________________________________________________________
add_24 (Add)                    (None, 8, 8, 1024)   0           activation_72[0][0]              
                                                                 bn413_branch2c[0][0]             
__________________________________________________________________________________________________
activation_75 (Activation)      (None, 8, 8, 1024)   0           add_24[0][0]                     
__________________________________________________________________________________________________
res414_branch2a (Conv2D)        (None, 8, 8, 256)    262400      activation_75[0][0]              
__________________________________________________________________________________________________
bn414_branch2a (BatchNormalizat (None, 8, 8, 256)    1024        res414_branch2a[0][0]            
__________________________________________________________________________________________________
activation_76 (Activation)      (None, 8, 8, 256)    0           bn414_branch2a[0][0]             
__________________________________________________________________________________________________
res414_branch2b (Conv2D)        (None, 8, 8, 256)    590080      activation_76[0][0]              
__________________________________________________________________________________________________
bn414_branch2b (BatchNormalizat (None, 8, 8, 256)    1024        res414_branch2b[0][0]            
__________________________________________________________________________________________________
activation_77 (Activation)      (None, 8, 8, 256)    0           bn414_branch2b[0][0]             
__________________________________________________________________________________________________
res414_branch2c (Conv2D)        (None, 8, 8, 1024)   263168      activation_77[0][0]              
__________________________________________________________________________________________________
bn414_branch2c (BatchNormalizat (None, 8, 8, 1024)   4096        res414_branch2c[0][0]            
__________________________________________________________________________________________________
add_25 (Add)                    (None, 8, 8, 1024)   0           activation_75[0][0]              
                                                                 bn414_branch2c[0][0]             
__________________________________________________________________________________________________
activation_78 (Activation)      (None, 8, 8, 1024)   0           add_25[0][0]                     
__________________________________________________________________________________________________
res415_branch2a (Conv2D)        (None, 8, 8, 256)    262400      activation_78[0][0]              
__________________________________________________________________________________________________
bn415_branch2a (BatchNormalizat (None, 8, 8, 256)    1024        res415_branch2a[0][0]            
__________________________________________________________________________________________________
activation_79 (Activation)      (None, 8, 8, 256)    0           bn415_branch2a[0][0]             
__________________________________________________________________________________________________
res415_branch2b (Conv2D)        (None, 8, 8, 256)    590080      activation_79[0][0]              
__________________________________________________________________________________________________
bn415_branch2b (BatchNormalizat (None, 8, 8, 256)    1024        res415_branch2b[0][0]            
__________________________________________________________________________________________________
activation_80 (Activation)      (None, 8, 8, 256)    0           bn415_branch2b[0][0]             
__________________________________________________________________________________________________
res415_branch2c (Conv2D)        (None, 8, 8, 1024)   263168      activation_80[0][0]              
__________________________________________________________________________________________________
bn415_branch2c (BatchNormalizat (None, 8, 8, 1024)   4096        res415_branch2c[0][0]            
__________________________________________________________________________________________________
add_26 (Add)                    (None, 8, 8, 1024)   0           activation_78[0][0]              
                                                                 bn415_branch2c[0][0]             
__________________________________________________________________________________________________
activation_81 (Activation)      (None, 8, 8, 1024)   0           add_26[0][0]                     
__________________________________________________________________________________________________
res416_branch2a (Conv2D)        (None, 8, 8, 256)    262400      activation_81[0][0]              
__________________________________________________________________________________________________
bn416_branch2a (BatchNormalizat (None, 8, 8, 256)    1024        res416_branch2a[0][0]            
__________________________________________________________________________________________________
activation_82 (Activation)      (None, 8, 8, 256)    0           bn416_branch2a[0][0]             
__________________________________________________________________________________________________
res416_branch2b (Conv2D)        (None, 8, 8, 256)    590080      activation_82[0][0]              
__________________________________________________________________________________________________
bn416_branch2b (BatchNormalizat (None, 8, 8, 256)    1024        res416_branch2b[0][0]            
__________________________________________________________________________________________________
activation_83 (Activation)      (None, 8, 8, 256)    0           bn416_branch2b[0][0]             
__________________________________________________________________________________________________
res416_branch2c (Conv2D)        (None, 8, 8, 1024)   263168      activation_83[0][0]              
__________________________________________________________________________________________________
bn416_branch2c (BatchNormalizat (None, 8, 8, 1024)   4096        res416_branch2c[0][0]            
__________________________________________________________________________________________________
add_27 (Add)                    (None, 8, 8, 1024)   0           activation_81[0][0]              
                                                                 bn416_branch2c[0][0]             
__________________________________________________________________________________________________
activation_84 (Activation)      (None, 8, 8, 1024)   0           add_27[0][0]                     
__________________________________________________________________________________________________
res417_branch2a (Conv2D)        (None, 8, 8, 256)    262400      activation_84[0][0]              
__________________________________________________________________________________________________
bn417_branch2a (BatchNormalizat (None, 8, 8, 256)    1024        res417_branch2a[0][0]            
__________________________________________________________________________________________________
activation_85 (Activation)      (None, 8, 8, 256)    0           bn417_branch2a[0][0]             
__________________________________________________________________________________________________
res417_branch2b (Conv2D)        (None, 8, 8, 256)    590080      activation_85[0][0]              
__________________________________________________________________________________________________
bn417_branch2b (BatchNormalizat (None, 8, 8, 256)    1024        res417_branch2b[0][0]            
__________________________________________________________________________________________________
activation_86 (Activation)      (None, 8, 8, 256)    0           bn417_branch2b[0][0]             
__________________________________________________________________________________________________
res417_branch2c (Conv2D)        (None, 8, 8, 1024)   263168      activation_86[0][0]              
__________________________________________________________________________________________________
bn417_branch2c (BatchNormalizat (None, 8, 8, 1024)   4096        res417_branch2c[0][0]            
__________________________________________________________________________________________________
add_28 (Add)                    (None, 8, 8, 1024)   0           activation_84[0][0]              
                                                                 bn417_branch2c[0][0]             
__________________________________________________________________________________________________
activation_87 (Activation)      (None, 8, 8, 1024)   0           add_28[0][0]                     
__________________________________________________________________________________________________
res418_branch2a (Conv2D)        (None, 8, 8, 256)    262400      activation_87[0][0]              
__________________________________________________________________________________________________
bn418_branch2a (BatchNormalizat (None, 8, 8, 256)    1024        res418_branch2a[0][0]            
__________________________________________________________________________________________________
activation_88 (Activation)      (None, 8, 8, 256)    0           bn418_branch2a[0][0]             
__________________________________________________________________________________________________
res418_branch2b (Conv2D)        (None, 8, 8, 256)    590080      activation_88[0][0]              
__________________________________________________________________________________________________
bn418_branch2b (BatchNormalizat (None, 8, 8, 256)    1024        res418_branch2b[0][0]            
__________________________________________________________________________________________________
activation_89 (Activation)      (None, 8, 8, 256)    0           bn418_branch2b[0][0]             
__________________________________________________________________________________________________
res418_branch2c (Conv2D)        (None, 8, 8, 1024)   263168      activation_89[0][0]              
__________________________________________________________________________________________________
bn418_branch2c (BatchNormalizat (None, 8, 8, 1024)   4096        res418_branch2c[0][0]            
__________________________________________________________________________________________________
add_29 (Add)                    (None, 8, 8, 1024)   0           activation_87[0][0]              
                                                                 bn418_branch2c[0][0]             
__________________________________________________________________________________________________
activation_90 (Activation)      (None, 8, 8, 1024)   0           add_29[0][0]                     
__________________________________________________________________________________________________
res419_branch2a (Conv2D)        (None, 8, 8, 256)    262400      activation_90[0][0]              
__________________________________________________________________________________________________
bn419_branch2a (BatchNormalizat (None, 8, 8, 256)    1024        res419_branch2a[0][0]            
__________________________________________________________________________________________________
activation_91 (Activation)      (None, 8, 8, 256)    0           bn419_branch2a[0][0]             
__________________________________________________________________________________________________
res419_branch2b (Conv2D)        (None, 8, 8, 256)    590080      activation_91[0][0]              
__________________________________________________________________________________________________
bn419_branch2b (BatchNormalizat (None, 8, 8, 256)    1024        res419_branch2b[0][0]            
__________________________________________________________________________________________________
activation_92 (Activation)      (None, 8, 8, 256)    0           bn419_branch2b[0][0]             
__________________________________________________________________________________________________
res419_branch2c (Conv2D)        (None, 8, 8, 1024)   263168      activation_92[0][0]              
__________________________________________________________________________________________________
bn419_branch2c (BatchNormalizat (None, 8, 8, 1024)   4096        res419_branch2c[0][0]            
__________________________________________________________________________________________________
add_30 (Add)                    (None, 8, 8, 1024)   0           activation_90[0][0]              
                                                                 bn419_branch2c[0][0]             
__________________________________________________________________________________________________
activation_93 (Activation)      (None, 8, 8, 1024)   0           add_30[0][0]                     
__________________________________________________________________________________________________
res420_branch2a (Conv2D)        (None, 8, 8, 256)    262400      activation_93[0][0]              
__________________________________________________________________________________________________
bn420_branch2a (BatchNormalizat (None, 8, 8, 256)    1024        res420_branch2a[0][0]            
__________________________________________________________________________________________________
activation_94 (Activation)      (None, 8, 8, 256)    0           bn420_branch2a[0][0]             
__________________________________________________________________________________________________
res420_branch2b (Conv2D)        (None, 8, 8, 256)    590080      activation_94[0][0]              
__________________________________________________________________________________________________
bn420_branch2b (BatchNormalizat (None, 8, 8, 256)    1024        res420_branch2b[0][0]            
__________________________________________________________________________________________________
activation_95 (Activation)      (None, 8, 8, 256)    0           bn420_branch2b[0][0]             
__________________________________________________________________________________________________
res420_branch2c (Conv2D)        (None, 8, 8, 1024)   263168      activation_95[0][0]              
__________________________________________________________________________________________________
bn420_branch2c (BatchNormalizat (None, 8, 8, 1024)   4096        res420_branch2c[0][0]            
__________________________________________________________________________________________________
add_31 (Add)                    (None, 8, 8, 1024)   0           activation_93[0][0]              
                                                                 bn420_branch2c[0][0]             
__________________________________________________________________________________________________
activation_96 (Activation)      (None, 8, 8, 1024)   0           add_31[0][0]                     
__________________________________________________________________________________________________
res421_branch2a (Conv2D)        (None, 8, 8, 256)    262400      activation_96[0][0]              
__________________________________________________________________________________________________
bn421_branch2a (BatchNormalizat (None, 8, 8, 256)    1024        res421_branch2a[0][0]            
__________________________________________________________________________________________________
activation_97 (Activation)      (None, 8, 8, 256)    0           bn421_branch2a[0][0]             
__________________________________________________________________________________________________
res421_branch2b (Conv2D)        (None, 8, 8, 256)    590080      activation_97[0][0]              
__________________________________________________________________________________________________
bn421_branch2b (BatchNormalizat (None, 8, 8, 256)    1024        res421_branch2b[0][0]            
__________________________________________________________________________________________________
activation_98 (Activation)      (None, 8, 8, 256)    0           bn421_branch2b[0][0]             
__________________________________________________________________________________________________
res421_branch2c (Conv2D)        (None, 8, 8, 1024)   263168      activation_98[0][0]              
__________________________________________________________________________________________________
bn421_branch2c (BatchNormalizat (None, 8, 8, 1024)   4096        res421_branch2c[0][0]            
__________________________________________________________________________________________________
add_32 (Add)                    (None, 8, 8, 1024)   0           activation_96[0][0]              
                                                                 bn421_branch2c[0][0]             
__________________________________________________________________________________________________
activation_99 (Activation)      (None, 8, 8, 1024)   0           add_32[0][0]                     
__________________________________________________________________________________________________
res422_branch2a (Conv2D)        (None, 8, 8, 256)    262400      activation_99[0][0]              
__________________________________________________________________________________________________
bn422_branch2a (BatchNormalizat (None, 8, 8, 256)    1024        res422_branch2a[0][0]            
__________________________________________________________________________________________________
activation_100 (Activation)     (None, 8, 8, 256)    0           bn422_branch2a[0][0]             
__________________________________________________________________________________________________
res422_branch2b (Conv2D)        (None, 8, 8, 256)    590080      activation_100[0][0]             
__________________________________________________________________________________________________
bn422_branch2b (BatchNormalizat (None, 8, 8, 256)    1024        res422_branch2b[0][0]            
__________________________________________________________________________________________________
activation_101 (Activation)     (None, 8, 8, 256)    0           bn422_branch2b[0][0]             
__________________________________________________________________________________________________
res422_branch2c (Conv2D)        (None, 8, 8, 1024)   263168      activation_101[0][0]             
__________________________________________________________________________________________________
bn422_branch2c (BatchNormalizat (None, 8, 8, 1024)   4096        res422_branch2c[0][0]            
__________________________________________________________________________________________________
add_33 (Add)                    (None, 8, 8, 1024)   0           activation_99[0][0]              
                                                                 bn422_branch2c[0][0]             
__________________________________________________________________________________________________
activation_102 (Activation)     (None, 8, 8, 1024)   0           add_33[0][0]                     
__________________________________________________________________________________________________
res423_branch2a (Conv2D)        (None, 8, 8, 256)    262400      activation_102[0][0]             
__________________________________________________________________________________________________
bn423_branch2a (BatchNormalizat (None, 8, 8, 256)    1024        res423_branch2a[0][0]            
__________________________________________________________________________________________________
activation_103 (Activation)     (None, 8, 8, 256)    0           bn423_branch2a[0][0]             
__________________________________________________________________________________________________
res423_branch2b (Conv2D)        (None, 8, 8, 256)    590080      activation_103[0][0]             
__________________________________________________________________________________________________
bn423_branch2b (BatchNormalizat (None, 8, 8, 256)    1024        res423_branch2b[0][0]            
__________________________________________________________________________________________________
activation_104 (Activation)     (None, 8, 8, 256)    0           bn423_branch2b[0][0]             
__________________________________________________________________________________________________
res423_branch2c (Conv2D)        (None, 8, 8, 1024)   263168      activation_104[0][0]             
__________________________________________________________________________________________________
bn423_branch2c (BatchNormalizat (None, 8, 8, 1024)   4096        res423_branch2c[0][0]            
__________________________________________________________________________________________________
add_34 (Add)                    (None, 8, 8, 1024)   0           activation_102[0][0]             
                                                                 bn423_branch2c[0][0]             
__________________________________________________________________________________________________
activation_105 (Activation)     (None, 8, 8, 1024)   0           add_34[0][0]                     
__________________________________________________________________________________________________
res424_branch2a (Conv2D)        (None, 8, 8, 256)    262400      activation_105[0][0]             
__________________________________________________________________________________________________
bn424_branch2a (BatchNormalizat (None, 8, 8, 256)    1024        res424_branch2a[0][0]            
__________________________________________________________________________________________________
activation_106 (Activation)     (None, 8, 8, 256)    0           bn424_branch2a[0][0]             
__________________________________________________________________________________________________
res424_branch2b (Conv2D)        (None, 8, 8, 256)    590080      activation_106[0][0]             
__________________________________________________________________________________________________
bn424_branch2b (BatchNormalizat (None, 8, 8, 256)    1024        res424_branch2b[0][0]            
__________________________________________________________________________________________________
activation_107 (Activation)     (None, 8, 8, 256)    0           bn424_branch2b[0][0]             
__________________________________________________________________________________________________
res424_branch2c (Conv2D)        (None, 8, 8, 1024)   263168      activation_107[0][0]             
__________________________________________________________________________________________________
bn424_branch2c (BatchNormalizat (None, 8, 8, 1024)   4096        res424_branch2c[0][0]            
__________________________________________________________________________________________________
add_35 (Add)                    (None, 8, 8, 1024)   0           activation_105[0][0]             
                                                                 bn424_branch2c[0][0]             
__________________________________________________________________________________________________
activation_108 (Activation)     (None, 8, 8, 1024)   0           add_35[0][0]                     
__________________________________________________________________________________________________
res425_branch2a (Conv2D)        (None, 8, 8, 256)    262400      activation_108[0][0]             
__________________________________________________________________________________________________
bn425_branch2a (BatchNormalizat (None, 8, 8, 256)    1024        res425_branch2a[0][0]            
__________________________________________________________________________________________________
activation_109 (Activation)     (None, 8, 8, 256)    0           bn425_branch2a[0][0]             
__________________________________________________________________________________________________
res425_branch2b (Conv2D)        (None, 8, 8, 256)    590080      activation_109[0][0]             
__________________________________________________________________________________________________
bn425_branch2b (BatchNormalizat (None, 8, 8, 256)    1024        res425_branch2b[0][0]            
__________________________________________________________________________________________________
activation_110 (Activation)     (None, 8, 8, 256)    0           bn425_branch2b[0][0]             
__________________________________________________________________________________________________
res425_branch2c (Conv2D)        (None, 8, 8, 1024)   263168      activation_110[0][0]             
__________________________________________________________________________________________________
bn425_branch2c (BatchNormalizat (None, 8, 8, 1024)   4096        res425_branch2c[0][0]            
__________________________________________________________________________________________________
add_36 (Add)                    (None, 8, 8, 1024)   0           activation_108[0][0]             
                                                                 bn425_branch2c[0][0]             
__________________________________________________________________________________________________
activation_111 (Activation)     (None, 8, 8, 1024)   0           add_36[0][0]                     
__________________________________________________________________________________________________
res426_branch2a (Conv2D)        (None, 8, 8, 256)    262400      activation_111[0][0]             
__________________________________________________________________________________________________
bn426_branch2a (BatchNormalizat (None, 8, 8, 256)    1024        res426_branch2a[0][0]            
__________________________________________________________________________________________________
activation_112 (Activation)     (None, 8, 8, 256)    0           bn426_branch2a[0][0]             
__________________________________________________________________________________________________
res426_branch2b (Conv2D)        (None, 8, 8, 256)    590080      activation_112[0][0]             
__________________________________________________________________________________________________
bn426_branch2b (BatchNormalizat (None, 8, 8, 256)    1024        res426_branch2b[0][0]            
__________________________________________________________________________________________________
activation_113 (Activation)     (None, 8, 8, 256)    0           bn426_branch2b[0][0]             
__________________________________________________________________________________________________
res426_branch2c (Conv2D)        (None, 8, 8, 1024)   263168      activation_113[0][0]             
__________________________________________________________________________________________________
bn426_branch2c (BatchNormalizat (None, 8, 8, 1024)   4096        res426_branch2c[0][0]            
__________________________________________________________________________________________________
add_37 (Add)                    (None, 8, 8, 1024)   0           activation_111[0][0]             
                                                                 bn426_branch2c[0][0]             
__________________________________________________________________________________________________
activation_114 (Activation)     (None, 8, 8, 1024)   0           add_37[0][0]                     
__________________________________________________________________________________________________
res427_branch2a (Conv2D)        (None, 8, 8, 256)    262400      activation_114[0][0]             
__________________________________________________________________________________________________
bn427_branch2a (BatchNormalizat (None, 8, 8, 256)    1024        res427_branch2a[0][0]            
__________________________________________________________________________________________________
activation_115 (Activation)     (None, 8, 8, 256)    0           bn427_branch2a[0][0]             
__________________________________________________________________________________________________
res427_branch2b (Conv2D)        (None, 8, 8, 256)    590080      activation_115[0][0]             
__________________________________________________________________________________________________
bn427_branch2b (BatchNormalizat (None, 8, 8, 256)    1024        res427_branch2b[0][0]            
__________________________________________________________________________________________________
activation_116 (Activation)     (None, 8, 8, 256)    0           bn427_branch2b[0][0]             
__________________________________________________________________________________________________
res427_branch2c (Conv2D)        (None, 8, 8, 1024)   263168      activation_116[0][0]             
__________________________________________________________________________________________________
bn427_branch2c (BatchNormalizat (None, 8, 8, 1024)   4096        res427_branch2c[0][0]            
__________________________________________________________________________________________________
add_38 (Add)                    (None, 8, 8, 1024)   0           activation_114[0][0]             
                                                                 bn427_branch2c[0][0]             
__________________________________________________________________________________________________
activation_117 (Activation)     (None, 8, 8, 1024)   0           add_38[0][0]                     
__________________________________________________________________________________________________
res428_branch2a (Conv2D)        (None, 8, 8, 256)    262400      activation_117[0][0]             
__________________________________________________________________________________________________
bn428_branch2a (BatchNormalizat (None, 8, 8, 256)    1024        res428_branch2a[0][0]            
__________________________________________________________________________________________________
activation_118 (Activation)     (None, 8, 8, 256)    0           bn428_branch2a[0][0]             
__________________________________________________________________________________________________
res428_branch2b (Conv2D)        (None, 8, 8, 256)    590080      activation_118[0][0]             
__________________________________________________________________________________________________
bn428_branch2b (BatchNormalizat (None, 8, 8, 256)    1024        res428_branch2b[0][0]            
__________________________________________________________________________________________________
activation_119 (Activation)     (None, 8, 8, 256)    0           bn428_branch2b[0][0]             
__________________________________________________________________________________________________
res428_branch2c (Conv2D)        (None, 8, 8, 1024)   263168      activation_119[0][0]             
__________________________________________________________________________________________________
bn428_branch2c (BatchNormalizat (None, 8, 8, 1024)   4096        res428_branch2c[0][0]            
__________________________________________________________________________________________________
add_39 (Add)                    (None, 8, 8, 1024)   0           activation_117[0][0]             
                                                                 bn428_branch2c[0][0]             
__________________________________________________________________________________________________
activation_120 (Activation)     (None, 8, 8, 1024)   0           add_39[0][0]                     
__________________________________________________________________________________________________
res429_branch2a (Conv2D)        (None, 8, 8, 256)    262400      activation_120[0][0]             
__________________________________________________________________________________________________
bn429_branch2a (BatchNormalizat (None, 8, 8, 256)    1024        res429_branch2a[0][0]            
__________________________________________________________________________________________________
activation_121 (Activation)     (None, 8, 8, 256)    0           bn429_branch2a[0][0]             
__________________________________________________________________________________________________
res429_branch2b (Conv2D)        (None, 8, 8, 256)    590080      activation_121[0][0]             
__________________________________________________________________________________________________
bn429_branch2b (BatchNormalizat (None, 8, 8, 256)    1024        res429_branch2b[0][0]            
__________________________________________________________________________________________________
activation_122 (Activation)     (None, 8, 8, 256)    0           bn429_branch2b[0][0]             
__________________________________________________________________________________________________
res429_branch2c (Conv2D)        (None, 8, 8, 1024)   263168      activation_122[0][0]             
__________________________________________________________________________________________________
bn429_branch2c (BatchNormalizat (None, 8, 8, 1024)   4096        res429_branch2c[0][0]            
__________________________________________________________________________________________________
add_40 (Add)                    (None, 8, 8, 1024)   0           activation_120[0][0]             
                                                                 bn429_branch2c[0][0]             
__________________________________________________________________________________________________
activation_123 (Activation)     (None, 8, 8, 1024)   0           add_40[0][0]                     
__________________________________________________________________________________________________
res430_branch2a (Conv2D)        (None, 8, 8, 256)    262400      activation_123[0][0]             
__________________________________________________________________________________________________
bn430_branch2a (BatchNormalizat (None, 8, 8, 256)    1024        res430_branch2a[0][0]            
__________________________________________________________________________________________________
activation_124 (Activation)     (None, 8, 8, 256)    0           bn430_branch2a[0][0]             
__________________________________________________________________________________________________
res430_branch2b (Conv2D)        (None, 8, 8, 256)    590080      activation_124[0][0]             
__________________________________________________________________________________________________
bn430_branch2b (BatchNormalizat (None, 8, 8, 256)    1024        res430_branch2b[0][0]            
__________________________________________________________________________________________________
activation_125 (Activation)     (None, 8, 8, 256)    0           bn430_branch2b[0][0]             
__________________________________________________________________________________________________
res430_branch2c (Conv2D)        (None, 8, 8, 1024)   263168      activation_125[0][0]             
__________________________________________________________________________________________________
bn430_branch2c (BatchNormalizat (None, 8, 8, 1024)   4096        res430_branch2c[0][0]            
__________________________________________________________________________________________________
add_41 (Add)                    (None, 8, 8, 1024)   0           activation_123[0][0]             
                                                                 bn430_branch2c[0][0]             
__________________________________________________________________________________________________
activation_126 (Activation)     (None, 8, 8, 1024)   0           add_41[0][0]                     
__________________________________________________________________________________________________
res431_branch2a (Conv2D)        (None, 8, 8, 256)    262400      activation_126[0][0]             
__________________________________________________________________________________________________
bn431_branch2a (BatchNormalizat (None, 8, 8, 256)    1024        res431_branch2a[0][0]            
__________________________________________________________________________________________________
activation_127 (Activation)     (None, 8, 8, 256)    0           bn431_branch2a[0][0]             
__________________________________________________________________________________________________
res431_branch2b (Conv2D)        (None, 8, 8, 256)    590080      activation_127[0][0]             
__________________________________________________________________________________________________
bn431_branch2b (BatchNormalizat (None, 8, 8, 256)    1024        res431_branch2b[0][0]            
__________________________________________________________________________________________________
activation_128 (Activation)     (None, 8, 8, 256)    0           bn431_branch2b[0][0]             
__________________________________________________________________________________________________
res431_branch2c (Conv2D)        (None, 8, 8, 1024)   263168      activation_128[0][0]             
__________________________________________________________________________________________________
bn431_branch2c (BatchNormalizat (None, 8, 8, 1024)   4096        res431_branch2c[0][0]            
__________________________________________________________________________________________________
add_42 (Add)                    (None, 8, 8, 1024)   0           activation_126[0][0]             
                                                                 bn431_branch2c[0][0]             
__________________________________________________________________________________________________
activation_129 (Activation)     (None, 8, 8, 1024)   0           add_42[0][0]                     
__________________________________________________________________________________________________
res432_branch2a (Conv2D)        (None, 8, 8, 256)    262400      activation_129[0][0]             
__________________________________________________________________________________________________
bn432_branch2a (BatchNormalizat (None, 8, 8, 256)    1024        res432_branch2a[0][0]            
__________________________________________________________________________________________________
activation_130 (Activation)     (None, 8, 8, 256)    0           bn432_branch2a[0][0]             
__________________________________________________________________________________________________
res432_branch2b (Conv2D)        (None, 8, 8, 256)    590080      activation_130[0][0]             
__________________________________________________________________________________________________
bn432_branch2b (BatchNormalizat (None, 8, 8, 256)    1024        res432_branch2b[0][0]            
__________________________________________________________________________________________________
activation_131 (Activation)     (None, 8, 8, 256)    0           bn432_branch2b[0][0]             
__________________________________________________________________________________________________
res432_branch2c (Conv2D)        (None, 8, 8, 1024)   263168      activation_131[0][0]             
__________________________________________________________________________________________________
bn432_branch2c (BatchNormalizat (None, 8, 8, 1024)   4096        res432_branch2c[0][0]            
__________________________________________________________________________________________________
add_43 (Add)                    (None, 8, 8, 1024)   0           activation_129[0][0]             
                                                                 bn432_branch2c[0][0]             
__________________________________________________________________________________________________
activation_132 (Activation)     (None, 8, 8, 1024)   0           add_43[0][0]                     
__________________________________________________________________________________________________
res433_branch2a (Conv2D)        (None, 8, 8, 256)    262400      activation_132[0][0]             
__________________________________________________________________________________________________
bn433_branch2a (BatchNormalizat (None, 8, 8, 256)    1024        res433_branch2a[0][0]            
__________________________________________________________________________________________________
activation_133 (Activation)     (None, 8, 8, 256)    0           bn433_branch2a[0][0]             
__________________________________________________________________________________________________
res433_branch2b (Conv2D)        (None, 8, 8, 256)    590080      activation_133[0][0]             
__________________________________________________________________________________________________
bn433_branch2b (BatchNormalizat (None, 8, 8, 256)    1024        res433_branch2b[0][0]            
__________________________________________________________________________________________________
activation_134 (Activation)     (None, 8, 8, 256)    0           bn433_branch2b[0][0]             
__________________________________________________________________________________________________
res433_branch2c (Conv2D)        (None, 8, 8, 1024)   263168      activation_134[0][0]             
__________________________________________________________________________________________________
bn433_branch2c (BatchNormalizat (None, 8, 8, 1024)   4096        res433_branch2c[0][0]            
__________________________________________________________________________________________________
add_44 (Add)                    (None, 8, 8, 1024)   0           activation_132[0][0]             
                                                                 bn433_branch2c[0][0]             
__________________________________________________________________________________________________
activation_135 (Activation)     (None, 8, 8, 1024)   0           add_44[0][0]                     
__________________________________________________________________________________________________
res434_branch2a (Conv2D)        (None, 8, 8, 256)    262400      activation_135[0][0]             
__________________________________________________________________________________________________
bn434_branch2a (BatchNormalizat (None, 8, 8, 256)    1024        res434_branch2a[0][0]            
__________________________________________________________________________________________________
activation_136 (Activation)     (None, 8, 8, 256)    0           bn434_branch2a[0][0]             
__________________________________________________________________________________________________
res434_branch2b (Conv2D)        (None, 8, 8, 256)    590080      activation_136[0][0]             
__________________________________________________________________________________________________
bn434_branch2b (BatchNormalizat (None, 8, 8, 256)    1024        res434_branch2b[0][0]            
__________________________________________________________________________________________________
activation_137 (Activation)     (None, 8, 8, 256)    0           bn434_branch2b[0][0]             
__________________________________________________________________________________________________
res434_branch2c (Conv2D)        (None, 8, 8, 1024)   263168      activation_137[0][0]             
__________________________________________________________________________________________________
bn434_branch2c (BatchNormalizat (None, 8, 8, 1024)   4096        res434_branch2c[0][0]            
__________________________________________________________________________________________________
add_45 (Add)                    (None, 8, 8, 1024)   0           activation_135[0][0]             
                                                                 bn434_branch2c[0][0]             
__________________________________________________________________________________________________
activation_138 (Activation)     (None, 8, 8, 1024)   0           add_45[0][0]                     
__________________________________________________________________________________________________
res435_branch2a (Conv2D)        (None, 8, 8, 256)    262400      activation_138[0][0]             
__________________________________________________________________________________________________
bn435_branch2a (BatchNormalizat (None, 8, 8, 256)    1024        res435_branch2a[0][0]            
__________________________________________________________________________________________________
activation_139 (Activation)     (None, 8, 8, 256)    0           bn435_branch2a[0][0]             
__________________________________________________________________________________________________
res435_branch2b (Conv2D)        (None, 8, 8, 256)    590080      activation_139[0][0]             
__________________________________________________________________________________________________
bn435_branch2b (BatchNormalizat (None, 8, 8, 256)    1024        res435_branch2b[0][0]            
__________________________________________________________________________________________________
activation_140 (Activation)     (None, 8, 8, 256)    0           bn435_branch2b[0][0]             
__________________________________________________________________________________________________
res435_branch2c (Conv2D)        (None, 8, 8, 1024)   263168      activation_140[0][0]             
__________________________________________________________________________________________________
bn435_branch2c (BatchNormalizat (None, 8, 8, 1024)   4096        res435_branch2c[0][0]            
__________________________________________________________________________________________________
add_46 (Add)                    (None, 8, 8, 1024)   0           activation_138[0][0]             
                                                                 bn435_branch2c[0][0]             
__________________________________________________________________________________________________
activation_141 (Activation)     (None, 8, 8, 1024)   0           add_46[0][0]                     
__________________________________________________________________________________________________
desc_conv2d_12 (DescConv2D)     (None, 4, 4, 512)    524800      activation_141[0][0]             
__________________________________________________________________________________________________
bn5a_branch2a (BatchNormalizati (None, 4, 4, 512)    2048        desc_conv2d_12[0][0]             
__________________________________________________________________________________________________
activation_142 (Activation)     (None, 4, 4, 512)    0           bn5a_branch2a[0][0]              
__________________________________________________________________________________________________
desc_conv2d_13 (DescConv2D)     (None, 4, 4, 512)    2359808     activation_142[0][0]             
__________________________________________________________________________________________________
bn5a_branch2b (BatchNormalizati (None, 4, 4, 512)    2048        desc_conv2d_13[0][0]             
__________________________________________________________________________________________________
activation_143 (Activation)     (None, 4, 4, 512)    0           bn5a_branch2b[0][0]              
__________________________________________________________________________________________________
desc_conv2d_14 (DescConv2D)     (None, 4, 4, 2048)   1050624     activation_143[0][0]             
__________________________________________________________________________________________________
desc_conv2d_15 (DescConv2D)     (None, 4, 4, 2048)   2099200     activation_141[0][0]             
__________________________________________________________________________________________________
bn5a_branch2c (BatchNormalizati (None, 4, 4, 2048)   8192        desc_conv2d_14[0][0]             
__________________________________________________________________________________________________
bn5a_branch1 (BatchNormalizatio (None, 4, 4, 2048)   8192        desc_conv2d_15[0][0]             
__________________________________________________________________________________________________
add_47 (Add)                    (None, 4, 4, 2048)   0           bn5a_branch2c[0][0]              
                                                                 bn5a_branch1[0][0]               
__________________________________________________________________________________________________
activation_144 (Activation)     (None, 4, 4, 2048)   0           add_47[0][0]                     
__________________________________________________________________________________________________
res51_branch2a (Conv2D)         (None, 4, 4, 512)    1049088     activation_144[0][0]             
__________________________________________________________________________________________________
bn51_branch2a (BatchNormalizati (None, 4, 4, 512)    2048        res51_branch2a[0][0]             
__________________________________________________________________________________________________
activation_145 (Activation)     (None, 4, 4, 512)    0           bn51_branch2a[0][0]              
__________________________________________________________________________________________________
res51_branch2b (Conv2D)         (None, 4, 4, 512)    2359808     activation_145[0][0]             
__________________________________________________________________________________________________
bn51_branch2b (BatchNormalizati (None, 4, 4, 512)    2048        res51_branch2b[0][0]             
__________________________________________________________________________________________________
activation_146 (Activation)     (None, 4, 4, 512)    0           bn51_branch2b[0][0]              
__________________________________________________________________________________________________
res51_branch2c (Conv2D)         (None, 4, 4, 2048)   1050624     activation_146[0][0]             
__________________________________________________________________________________________________
bn51_branch2c (BatchNormalizati (None, 4, 4, 2048)   8192        res51_branch2c[0][0]             
__________________________________________________________________________________________________
add_48 (Add)                    (None, 4, 4, 2048)   0           activation_144[0][0]             
                                                                 bn51_branch2c[0][0]              
__________________________________________________________________________________________________
activation_147 (Activation)     (None, 4, 4, 2048)   0           add_48[0][0]                     
__________________________________________________________________________________________________
res52_branch2a (Conv2D)         (None, 4, 4, 512)    1049088     activation_147[0][0]             
__________________________________________________________________________________________________
bn52_branch2a (BatchNormalizati (None, 4, 4, 512)    2048        res52_branch2a[0][0]             
__________________________________________________________________________________________________
activation_148 (Activation)     (None, 4, 4, 512)    0           bn52_branch2a[0][0]              
__________________________________________________________________________________________________
res52_branch2b (Conv2D)         (None, 4, 4, 512)    2359808     activation_148[0][0]             
__________________________________________________________________________________________________
bn52_branch2b (BatchNormalizati (None, 4, 4, 512)    2048        res52_branch2b[0][0]             
__________________________________________________________________________________________________
activation_149 (Activation)     (None, 4, 4, 512)    0           bn52_branch2b[0][0]              
__________________________________________________________________________________________________
res52_branch2c (Conv2D)         (None, 4, 4, 2048)   1050624     activation_149[0][0]             
__________________________________________________________________________________________________
bn52_branch2c (BatchNormalizati (None, 4, 4, 2048)   8192        res52_branch2c[0][0]             
__________________________________________________________________________________________________
add_49 (Add)                    (None, 4, 4, 2048)   0           activation_147[0][0]             
                                                                 bn52_branch2c[0][0]              
__________________________________________________________________________________________________
activation_150 (Activation)     (None, 4, 4, 2048)   0           add_49[0][0]                     
__________________________________________________________________________________________________
average_pooling2d (AveragePooli (None, 2, 2, 2048)   0           activation_150[0][0]             
__________________________________________________________________________________________________
flatten (Flatten)               (None, 8192)         0           average_pooling2d[0][0]          
__________________________________________________________________________________________________
fc10 (Dense)                    (None, 10)           81930       flatten[0][0]                    
==================================================================================================
Total params: 58,446,602
Trainable params: 50,307,978
Non-trainable params: 8,138,624
__________________________________________________________________________________________________

[INFO] Hyperparameters from training:

[INFO] Number of iterations: 60000

…
